best_model.pth (torch, 3492 bytes, 8 tensors)

fc.0.weight f4 [4, 5]
0	0x3eaf0f18	0.34191203
1	0xbfa2be47	-1.2714318
2	0xbdee13f8	-0.116249025
3	0x3fc6ac4f	1.5521334
4	0xbe3930ea	-0.18085065
5	0x3db8d19b	0.09024354
6	0xc0b6ccac	-5.7124844
7	0x3f21e231	0.63235766
8	0x3f1cf385	0.6130908
9	0x3e03ab9d	0.12858434
10	0x3ec705d4	0.38871634
11	0xc04b4ad4	-3.1764421
12	0x3ee48d80	0.44639206
13	0x3e3001b8	0.17188156
14	0xbcb63150	-0.02224031
15	0xbd8150e0	-0.06314254
16	0x40814079	4.03912
17	0x3ecbbe3c	0.39793575
18	0xbe7f0bc6	-0.24906835
19	0x3e08527f	0.1331272

fc.0.bias f4 [4]
0	0xbf88061f	-1.0626868
1	0x3eeed64f	0.4664788
2	0xbeb22e5c	-0.34800994
3	0x3d9c4d7a	0.07631965

fc.2.weight f4 [4, 4]
0	0xbeca142a	-0.3946851
1	0xbe6c098c	-0.23050517
2	0xbe10936c	-0.14118737
3	0xbe99ecfe	-0.30063623
4	0xbf90770c	-1.128633
5	0x3f0a7131	0.54078966
6	0x3f2cc7eb	0.6749255
7	0xc01c187d	-2.4389946
8	0x3ee913eb	0.4552301
9	0x3fa1c362	1.2637751
10	0xbf12085e	-0.5704402
11	0x3f902862	1.1262324
12	0xbfa058db	-1.2527117
13	0xbd83879d	-0.064223506
14	0x3f894772	1.0724928
15	0xbef9c632	-0.48784024

fc.2.bias f4 [4]
0	0x3e0990e8	0.13434184
1	0xbdf174e2	-0.11789872
2	0xbee2bd86	-0.4428522
3	0x3eabcc30	0.3355422

fc.4.weight f4 [4, 4]
0	0x3e93fbb6	0.28902978
1	0xc02ba119	-2.6817076
2	0xbee347c7	-0.443907
3	0x3f95f494	1.1715264
4	0x3e82017a	0.25391752
5	0x3eafab17	0.3431022
6	0xbf307096	-0.6892179
7	0xbf7564dd	-0.9585703
8	0xbec45b9c	-0.38351142
9	0x4019bd5a	2.402182
10	0x3f8500ab	1.0390829
11	0x3f0e307a	0.5554272
12	0x3e21ecfc	0.15813059
13	0xbfb1c4f9	-1.3888236
14	0x3fadb564	1.3570981
15	0xbd0678fd	-0.032830227

fc.4.bias f4 [4]
0	0x3e19f410	0.15034509
1	0xbe7c9846	-0.24667463
2	0xbf4e8cf2	-0.80683815
3	0xbf3f8480	-0.74811554

fc.6.weight f4 [4, 4]
0	0xbfca7f28	-1.5820055
1	0x3e0b1c54	0.13585025
2	0x3f0456e6	0.51695096
3	0xbf2a2e0f	-0.6647653
4	0x40057d0f	2.085758
5	0xbf734e06	-0.9504093
6	0x3e7c0d64	0.24614483
7	0x3f95ca84	1.1702428
8	0x3f1561ad	0.58352166
9	0xbe56904e	-0.20953485
10	0xc0115bb1	-2.2712214
11	0xbfce56b2	-1.6120207
12	0xc01eafb5	-2.4794743
13	0x3e6a9538	0.22908485
14	0x3f9d62ef	1.2295817
15	0x40204124	2.5039759

fc.6.bias f4 [4]
0	0xbe9311b4	-0.28724444
1	0xbebf326c	-0.37343156
2	0x3edb04f7	0.42777225
3	0xbf11b4da	-0.5691658
