model.pth (torch, 4788 bytes, 5 tensors)

fc1.weight f4 [16, 2]
-0.075704165 -1.5552284 1.0680571 -1.4138037 -0.7834308 1.5566912 0.25556132 -0.10114343
0.74067914 -0.5064615 1.421485 -1.6085211 -0.69391966 0.8486145 -1.6594104 1.7079595
0.78171146 0.020009954 -0.89589006 1.8886861 1.3994261 -1.3149141 -0.5233612 1.5703963
-1.0129465 0.70110184 0.24757561 0.18990232 -0.2243749 -0.011280306 -0.0035844753 -0.0024586194
00000000: c90a 9bbd b911 c7bf 18b6 883f 85f7 b4bf
00000010: ec8e 48bf a841 c73f efd8 823e 4924 cfbd
00000020: 269d 3d3f 76a7 01bf 38f3 b53f 05e4 cdbf
00000030: b8a4 31bf cd3e 593f 8f67 d4bf 6b9e da3f
00000040: 3e1e 483f eaeb a33c 0d59 65bf 77c0 f13f
00000050: 6520 b33f 1b4f a8bf 00fb 05bf bf02 c93f
00000060: 3ba8 81bf 697b 333f 7684 7d3e c175 423e
00000070: 89c2 65be 08d1 38bc 84e9 6abb ca20 21bb

fc1.bias f4 [16]
-2.7369542 0.17996275 0.39614445 0.21478657 1.1478052 -0.19743876 -0.2829775 -0.79827595
-0.44333184 0.62510246 1.428863 0.20716691 -1.0247113 -0.56263435 -0.16439728 -0.00057721225
00000000: 422a 2fc0 2848 383e 72d3 ca3e 03f1 5b3e
00000010: 48eb 923f 632d 4abe 6de2 90be d05b 4cbf
00000020: 64fc e2be b706 203f fce4 b63f 9023 543e
00000030: bd29 83bf ce08 10bf c357 28be 0f50 17ba

fc2.weight f4 [32, 16]
-2.1198382 0.09931816 -1.2920173 -0.5951714 0.32587507 -1.2426893 -0.64884466 -1.641923
1.4150236 -1.3944619 -0.13998389 -0.3333222 1.2607642 0.44177407 0.6499879 -0.03307155
-2.344636 -0.061925124 -1.5097016 -0.18257317 0.2757123 -1.0625588 -0.2965542 -2.0030243
1.2834862 -1.174719 -0.1507987 -0.41271704 1.5135841 0.5226114 0.8021218 -0.0016376417
-1.918976 -0.3289669 -1.1230946 -0.36894855 0.4078381 -1.0332782 -0.43022966 -1.812844
1.3536084 -1.4452146 -0.04192681 -0.4942727 1.4200624 0.47237843 0.47231448 -0.12002258
-2.2512698 0.038314786 -1.2151543 -0.19895606 0.15433513 -1.1331377 -0.6698969 -1.7112497
1.4185488 -1.4654516 -0.21289062 -0.35072425 1.3206971 0.39821967 0.64090997 0.046102766
-2.3972957 -0.02367964 -1.3331558 -0.4740306 0.27640787 -1.0855079 -0.58763766 -1.7195599
1.1945051 -1.4641747 -0.15733814 -0.24131984 1.4530399 0.79321223 0.49508402 0.18290095
-0.3204412 -3.1010718 0.16728386 -0.37519607 -0.88793296 -0.9636901 0.2490756 -0.058649596
0.584053 -0.07222022 1.4086322 -0.789106 -0.23360713 0.8250992 0.06896478 -0.016893733
0.34570673 -0.6254399 0.050398126 0.03792439 -0.5155564 0.21591552 -0.109585606 0.29312468
0.058536734 0.24240819 0.47373214 -0.38365656 -0.60927606 -0.023802837 0.027440796 -0.004014798
0.47299984 -0.6631659 0.058904935 0.31340566 -0.4060236 0.16622275 0.16583382 0.2418045
0.018553568 0.2353188 0.48409528 -0.445566 -0.54732627 -0.11940704 -0.04940984 0.000996992
0.36812362 -0.5908248 0.07658617 -0.019142034 -0.4875499 0.21039838 0.13683255 0.18229085
0.07167605 0.29626384 0.45470884 -0.49179357 -0.58696264 0.039131947 -0.010513441 0.0075047053
-0.2611878 -2.8801405 -0.02264552 -0.44271377 -0.8506064 -1.2234024 0.08284778 0.0716637
0.787474 -0.03412135 1.3502663 -0.5667983 -0.31041554 0.48740712 0.049201198 -0.06503196
-2.0243733 -0.25437453 -1.1344022 -0.40220553 0.45376572 -1.0644674 -0.83003825 -1.6191106
1.3335507 -1.4692702 -0.11610959 -0.35080752 1.3376691 0.41316006 0.5969945 -0.026931621
-0.2909746 0.6011258 -0.17369786 0.15076621 0.56728154 -0.22946014 -0.057348892 -0.21342197
-0.08364246 -0.14963977 -0.49922344 0.40097165 0.632388 -0.015245511 -0.0062301722 0.0003055867
4.2239676 2.0390995 0.3528272 -0.7884073 -3.211193 2.619727 0.12198092 0.5785048
-1.6670389 0.532993 -1.1127295 0.31529054 0.6608211 -2.2182887 3.4034457 0.4295328
-2.0804808 -0.14442182 -1.3301957 -0.2299311 0.55578715 -0.983375 -0.7100977 -1.7937746
1.3066674 -1.2679983 -0.41068003 -0.5008061 1.5008469 0.44214538 0.5140918 0.003980254
-0.16915865 -3.3093472 0.13457546 -0.510947 -0.9325223 -1.104779 0.00864947 0.19094633
0.64975995 -0.02638537 1.6195629 -0.8751796 -0.31511205 0.6338523 -0.1892829 -0.07772052
-2.2780123 -0.0032464757 -1.244483 -0.17256932 0.37312335 -1.0335034 -0.4711476 -1.8833091
1.235613 -1.4705057 -0.32078394 -0.24699229 1.5438135 0.6287449 0.7257759 -0.10183183
00000000: 6eab 07c0 5267 cb3d d360 a5bf 275d 18bf
00000010: 19d9 a63e 7110 9fbf af1a 26bf 882a d2bf
00000020: 7e1f b53f ba7d b2bf f057 0fbe 35a9 aabe
00000030: b960 a13f 3630 e23e 9b65 263f 0976 07bd
00000040: 840e 16c0 33a5 7dbd e73d c1bf 76f4 3abe
00000050: 2a2a 8d3e ed01 88bf f4d5 97be 8d31 00c0
00000060: 4749 a43f 315d 96bf f96a 1abe a64f d3be
00000070: 20bd c13f dcc9 053f db57 4d3f 23a6 d6ba
00000080: 01a1 f5bf 596e a8be 90c1 8fbf d3e6 bcbe
00000090: 28d0 d03e 7642 84bf 1047 dcbe 460b e8bf
000000a0: 0a43 ad3f cbfc b8bf 72bb 2bbd 5011 fdbe
000000b0: 9bc4 b53f 96db f13e 34d3 f13e 66ce f5bd
000000c0: ce14 10c0 f7ef 1c3d 2d8a 9bbf 23bb 4bbe
000000d0: 070a 1e3e a80a 91bf 5d7e 2bbf 3b0a dbbf
000000e0: 0293 b53f eb93 bbbf 0000 5abe 2192 b3be
000000f0: 9a0c a93f 73e3 cb3e ad12 243f 41d6 3c3d
00000100: 4b6d 19c0 cefb c1bc d9a4 aabf 24b4 f2be
00000110: 5585 8d3e ecf1 8abf 6c6f 16bf 8a1a dcbf
00000120: 8be5 983f 146a bbbf 401d 21be 8c1c 77be
00000130: 36fd b93f f50f 4b3f a77b fd3e 634a 3b3e
00000140: de10 a4be f677 46c0 764c 2b3e b319 c0be
00000150: 934f 63bf 65b4 76bf ad0d 7f3e 8f3a 70bd
00000160: 7f84 153f 32e8 93bd 0f4e b43f da02 4abf
00000170: b536 6fbe b339 533f 683d 8d3d ba64 8abc
00000180: 7900 b13e d41c 20bf 446e 4e3d 9b56 1b3d
00000190: 81fb 03bf f518 5d3e 6b6e e0bd 7014 963e
000001a0: 37c4 6f3d da39 783e 058d f23e a26e c4be
000001b0: 84f9 1bbf 2bfe c2bc 85cb e03c 918e 83bb
000001c0: 092d f23e 3ec5 29bf 4d46 713d b576 a03e
000001d0: 53e2 cfbe 4c36 2a3e 57d0 293e 999b 773e
000001e0: a7fd 973c 69f7 703e 56db f73e 3a21 e4be
000001f0: 931d 0cbf ae8b f4bd f961 4abd 80ad 823a
00000200: b37a bc3e 4b40 17bf 36d9 9c3d c1cf 9cbc
00000210: 24a0 f9be ac72 573e d51d 0c3e 74aa 3a3e
00000220: e5ca 923d e5af 973e 99cf e83e 5ecc fbbe
00000230: 2f43 16bf d248 203d 9140 2cbc 08ea f53b
00000240: 68ba 85be 3954 38c0 1983 b9bc 61ab e2be
00000250: 57c1 59bf 7398 9cbf 19ac a93d 6bc4 923d
00000260: e597 493f d4c2 0bbd 87d5 ac3f b219 11bf
00000270: c9ee 9ebe 6d8d f93e 3287 493d 7a2f 85bd
00000280: 558f 01c0 613d 82be 1734 91bf e2ed cdbe
00000290: fb53 e83e 7840 88bf 637d 54bf 043f cfbf
000002a0: cab1 aa3f 0c11 bcbf ddca edbd 0b9d b3be
000002b0: be38 ab3f b789 d33e a2d4 183f b49f dcbc
000002c0: 9ffa 94be 61e3 193f dadd 31be 7562 1a3e
000002d0: 5d39 113f 99f7 6abe ace6 6abd 4a8b 5abe
000002e0: bd4c abbd 2b3b 19be 379a ffbe 284c cd3e
000002f0: 2ee4 213f 4fc8 79bc 7926 ccbb 2737 a039
00000300: be2a 8740 9b80 0240 c4a5 b43e 10d5 49bf
00000310: 3084 4dc0 9ba9 2740 22d1 f93d e418 143f
00000320: 8861 d5bf 3b72 083f ec6d 8ebf c36d a13e
00000330: 922b 293f 71f8 0dc0 0ed2 5940 b9eb db3e
00000340: 9926 05c0 50e3 13be da43 aabf 0f73 6bbe
00000350: 1148 0e3f 77be 7bbf f6c8 35bf 689a e5bf
00000360: e140 a73f c54d a2bf a744 d2be d434 00bf
00000370: c01b c03f e160 e23e 859b 033f ca6c 823b
00000380: ed37 2dbe 58cc 53c0 26ce 093e 6ccd 02bf
00000390: c8b9 6ebf 6669 8dbf 82b6 0d3c 6f87 433e
000003a0: ab56 263f 2226 d8bc d64d cf3f c50b 60bf
000003b0: 5e56 a1be 2544 223f 60d3 41be f02b 9fbd
000003c0: f4ca 11c0 d3c2 54bb 384b 9fbf 03b6 30be
000003d0: 060a bf3e d749 84bf 423a f1be 4610 f1bf
000003e0: 9128 9e3f 8839 bcbf cb3d a4be 8ceb 7cbe
000003f0: ae9b c53f 6df5 203f 73cc 393f 358d d0bd

fc2.bias f4 [32]
-0.5906309 -0.67119664 -0.5244304 -0.4572542 -0.5051697 -0.22558299 0.03694077 -0.0025035907
0.073271684 -0.31044677 -0.66195047 -0.066741146 0.75036436 -0.45479128 -0.43128058 -0.38562799
0.0725692 0.12882218 -0.7304341 -0.5984216 0.15669861 -0.3957152 0.19524449 0.19944906
0.07225952 0.221417 -0.6120617 0.053967524 0.062381174 0.04878142 0.21834502 0.056315243
00000000: 9633 17bf 8bd3 2bbf 1241 06bf 391d eabe
00000010: cd52 01bf 3aff 66be 344f 173d 4813 24bb
00000020: 770f 963d e1f2 9ebe 9675 29bf 95af 88bd
00000030: e117 403f 67da e8be cfd0 dcbe 0871 c5be
00000040: 299f 943d f6e9 033e bbfd 3abf 2832 19bf
00000050: 9a75 203e 2f9b cabe 2cee 473e 603c 4c3e
00000060: cdfc 933d 23bb 623e 13b0 1cbf 0d0d 5d3d
00000070: 6783 7f3d 07cf 473d d695 5f3e d0aa 663d

fc6.weight f4 [1, 32]
0.02587994 0.027508354 0.029153354 0.027298717 0.029263787 -0.033191375 -0.6882113 -0.5185239
-0.6124466 -0.032059684 0.0280856 0.72836995 -0.0050844243 0.027144643 -0.028047258 0.030992107
-0.6292669 -0.7696072 0.030120218 0.024212254 -0.60550153 0.028220132 -0.7164816 -0.65498763
-0.56175125 -0.7563964 0.02746084 -0.6584651 -0.58098364 0.6117791 -0.7880871 -0.5879166
00000000: 2b02 d43c 3359 e13c 04d3 ee3c 8fa1 df3c
00000010: 9cba ef3c aef3 07bd 9e2e 30bf fbbd 04bf
00000020: 4dc9 1cbf 0451 03bd c613 e63c 7476 3a3f
00000030: 3e9b a6bb 715e de3c 5dc3 e5bc 29e3 fd3c
00000040: a317 21bf fa04 45bf adbe f63c c758 c63c
00000050: 2602 1bbf e82d e73c 576b 37bf 45ad 27bf
00000060: eece 0fbf 32a3 41bf 8ef5 e03c 2b91 28bf
00000070: 58bb 14bf 8e9d 1c3f 14c0 49bf b481 16bf
